layer_12_avg_corr_openwebtext-1.npy (npy, 3712 bytes, 1 tensors)

array f4 [896]
000000 b1 0a 7f bc ad 96 20 3d fb a2 94 bd a6 37 c8 bd
       -0.015566514 0.039206196 -0.072576486 -0.09776239
000010 9b e9 ab bd e9 53 ba bd 11 29 ef bc 47 63 0f 3e
       -0.08394166 -0.09098036 -0.029194387 0.14002715
000020 c7 20 6a bd b6 d7 7e bd a6 34 c0 bd f2 f6 ef bb
       -0.057160165 -0.062217437 -0.09385042 -0.0073231393
000030 06 92 70 be df ed 8b 3e 18 b4 01 bc 6b a9 82 3d
       -0.23493204 0.2732992 -0.007916473 0.0637997
000040 c1 38 b5 3d fb 15 2a bc a5 e4 3a bf 24 f9 7b be
       0.088487156 -0.010381217 -0.73005134 -0.24606758
000050 ce 4a 78 bd b0 03 cd bd 48 20 d5 bd 5c 56 7b bd
       -0.060618214 -0.10010469 -0.10406548 -0.061361656
000060 37 d5 88 3d 67 13 d8 bc f8 ec fc 3c 25 6d 91 3d
       0.066812925 -0.02637644 0.030874714 0.07100896
000070 3e dc 18 bd 3b 73 84 bd 8a c7 34 3d 77 8a cc be
       -0.037319414 -0.06467291 0.044135608 -0.3994939
000080 13 16 32 3e 12 20 e8 bd ee 9a 3f 3c dc e7 92 be
       0.17391233 -0.11334242 0.011694653 -0.2869252
000090 ae d7 74 bd 61 20 c7 3b 71 cd e6 bc 97 dd 10 3e
       -0.059776 0.006076858 -0.028174134 0.1414703
0000a0 eb ef a4 3e e7 b2 6c 3d 20 40 4b 3d a8 ef d0 bd
       0.32214293 0.057787802 0.0496217 -0.10201961
0000b0 58 1d 89 3e ff 53 a3 3c bf 14 43 3c 46 0f 60 3d
       0.267802 0.019937513 0.011906802 0.054702066
0000c0 0b 34 17 bc aa 21 55 3d 57 e9 17 be 19 c1 f9 3d
       -0.009228717 0.052034058 -0.14835106 0.121950336
0000d0 c1 f3 cd bc a4 f8 08 bf 7a 56 bc 3b bd 43 91 be
       -0.025140645 -0.53504395 0.0057476135 -0.28371993
0000e0 0d 68 b5 3d 86 81 ce 3d c1 2a fe bd 9a d4 58 3d
       0.08857737 0.100832984 -0.124104984 0.052937128
0000f0 c1 d5 04 bd 04 be 26 3d 14 2e b0 3f 5c a9 a1 3d
       -0.032430414 0.040708557 1.3764062 0.07893631
000100 53 d6 50 bd d2 82 ed 3c ab e2 86 bd c0 c4 a3 bd
       -0.050985646 0.028993044 -0.06586202 -0.079965115
000110 87 9a 04 3d 37 f7 aa 3b a2 0b 96 3e a6 45 24 3d
       0.03237393 0.0052174586 0.2930575 0.040105484
000120 7a 61 a6 3d 30 c0 c7 3a 95 ba e0 bb 20 02 1a be
       0.08124061 0.0015239771 -0.00685818 -0.15039873
000130 1d 1e 1c 3e 8f 61 ea 3c 5c a9 40 bd 20 e3 3e 3d
       0.15245862 0.028610973 -0.047036514 0.046603322
000140 a7 5a 43 be d1 db 38 3d f8 bb 75 bd 18 c9 ee 3c
       -0.1907755 0.04513151 -0.059993714 0.029148623
000150 12 04 91 3d 9e 66 b8 bb d6 5c 2d 3d 25 31 3c 3c
       0.070808545 -0.0056274673 0.042324863 0.011486326
000160 68 a9 e2 3d 5f 48 3a bc 16 27 52 3c 9a 6b c7 3c
       0.11067468 -0.011369794 0.012826702 0.0243433
000170 ba 11 b5 bd 59 f1 61 bd 8e e5 fd bc e1 1c a4 bd
       -0.08841272 -0.055161808 -0.03099325 -0.08013321
000180 2f 00 9c bb 30 b6 1d 3d 29 23 8f 3c 6d e6 7b 3d
       -0.004760764 0.038503826 0.01747282 0.061499048
000190 f1 01 89 bd 32 23 d0 3d d1 61 80 3d 8a 14 59 3c
       -0.066898234 0.10162963 0.06268657 0.013249526
0001a0 8d ef 1e 3c 4b 4a b3 3d e1 67 a7 be 14 53 25 bd
       0.009700668 0.08754405 -0.3269644 -0.040362433
0001b0 3f 79 0d 3e bc c8 23 3d da 43 5f 3c bc ba 58 bd
       0.13815783 0.039986357 0.013627017 -0.05291246
0001c0 64 0e 47 3e a0 28 b3 3c f2 9e 6d bd 18 f0 57 bb
       0.19439083 0.021869957 -0.05801291 -0.0032949504
0001d0 22 57 a0 3d bd 7f d1 bc 25 9f 10 be 3b 23 7d bd
       0.07829119 -0.025573606 -0.14123209 -0.061801177
0001e0 2f 75 96 3d d6 59 65 bd 9d 81 a2 bd ac 30 1d 3d
       0.0734657 -0.055993877 -0.07934878 0.038376495
0001f0 94 a2 10 be dc 9a 60 be 98 1b 06 be 2a 18 bd 3d
       -0.14124519 -0.21934074 -0.13096464 0.092331246
000200 ca 45 d8 3d 84 4e f7 bb 4c 0b fb bc df a0 d6 3d
       0.10560186 -0.0075472016 -0.030645035 0.104799025
000210 33 26 c7 bd 6c a6 ce 3c fd 6f 59 bd 99 e0 d2 bb
       -0.09724083 0.02522584 -0.053085316 -0.0064354655
000220 ee 16 3b bb 21 ef 8c bd 02 cf 92 bd 74 98 57 3e
       -0.0028547603 -0.06881548 -0.0716839 0.2105425
000230 86 2e 95 3e 82 d0 c1 bd 2f 0c 8d 3e 2f 67 20 bc
       0.29137057 -0.09463598 0.27548358 -0.009790226
000240 0e a7 34 be 9a 3b a2 3d e5 cd ab 3d 67 e8 79 3d
       -0.17641851 0.07921524 0.08388881 0.06101265
000250 7d fa 32 bd 04 53 84 bb 8a e2 01 3d 6c 27 ca bd
       -0.043695915 -0.0040382165 0.031710185 -0.098708004
000260 41 0f 39 3d 07 72 42 3e 1a bf 98 3c 0a 91 53 3d
       0.045180563 0.1898881 0.018645812 0.051651992
000270 8e b8 cc bd d4 ee 45 be dc 56 e4 bc f1 f2 15 3d
       -0.099961385 -0.19329387 -0.027873449 0.03660864
000280 b0 39 81 3b 86 86 bb bb b3 8a 8e bc 0c 84 4f bd
       0.0039436445 -0.0057228236 -0.017400121 -0.05066304
000290 ad ca 42 3b 87 12 ea bc d8 ea 0b 3e f2 65 90 3c
       0.0029722855 -0.028573288 0.13663805 0.017626736
0002a0 03 6c 57 bb 4e 5f 11 3c ea 4d 2b be 4e 2b d5 b9
       -0.0032870776 0.00887282 -0.1672894 -0.0004065879
0002b0 86 85 6c 3c 3f 5a 01 bf e6 e5 6b 3d 58 07 97 bc
       0.014436131 -0.5052833 0.057592295 -0.018436119
0002c0 bb 5c 1d be cb 4f 01 3d 95 ac 0a 3d 25 75 c8 3d
       -0.15367405 0.031570237 0.033855993 0.097879685
0002d0 f4 5c 34 3d 9c 78 72 bd 2f 32 2f 3e ed b1 d2 3b
       0.04403396 -0.059197053 0.17108987 0.006429902
0002e0 f3 76 b8 bd a3 95 df bd 68 ad d4 bd 79 66 b9 bd
       -0.09007063 -0.10917213 -0.10384637 -0.09052748
0002f0 2c 69 c2 3d 70 27 82 bd b8 55 5b 3b eb 1d 98 bc
       0.09492716 -0.06355178 0.003346784 -0.018568953
000300 da 3f 1a bd 95 af 08 bd 7d bc 0e bd 5a 00 27 bd
       -0.03765855 -0.033370573 -0.034847725 -0.04077182
000310 fd e6 ce 3d ca 2a 0d bd 92 2f 83 3d 2a 93 7e 3d
       0.10102651 -0.034464635 0.06405558 0.062152065
000320 a5 28 8b bd fc 73 7e 3e 6c 82 72 bd eb af a3 3c
       -0.06794862 0.24848932 -0.05920641 0.019981345
000330 b9 b8 ef bd c2 8b e0 3c 7a 00 b9 3c 83 a3 fc 3c
       -0.11705155 0.027410392 0.022583235 0.030839687
000340 d9 5a b2 bf 44 1d 85 3c 9f 33 e9 bc c2 42 c9 3d
       -1.3933975 0.016249306 -0.028466998 0.09827186
000350 50 c9 0d bd bc 47 53 3d bd 87 4e bd d8 7a 78 bd
       -0.034615815 0.051582083 -0.05042242 -0.060664028
000360 22 98 6a 3d f5 36 87 bc 23 cc e4 3d 47 05 e8 bd
       0.05727399 -0.016505698 0.111717485 -0.113291316
000370 45 39 78 bc 65 b4 d8 3a 6b 97 8a 3d ad 23 84 3d
       -0.015150373 0.0016533254 0.06767162 0.06452117
000380 51 fd b7 3c 15 d1 4c 3c c5 e5 ff 3d bd be 50 be
       0.022459658 0.012501021 0.12494997 -0.20385261
000390 25 38 42 bd 81 76 3b bc 6d 7f ce bc 7f 83 ea bb
       -0.047416825 -0.011441828 -0.025207246 -0.007156789
0003a0 50 9a 24 be 3d 4d be 3d 67 d7 20 3e b1 67 ad 3d
       -0.1607449 0.09292076 0.1570717 0.08467043
0003b0 b9 d7 bb bd ec c4 42 bd 83 81 c8 3d f0 ef 5b 3c
       -0.09172005 -0.04755108 0.097903274 0.013423905
0003c0 ef 0b ad bd 29 72 0f 3c 1a d6 9b 3c 66 6f d1 bd
       -0.08449542 0.008755245 0.01902299 -0.10226326
0003d0 ce 4f 22 bc e2 f2 38 bd 4a 4d 94 bc 38 e6 81 3a
       -0.009906722 -0.045153506 -0.01810326 0.000991053
0003e0 4c 14 0d bd 75 91 0a be 7b 94 bc bc 79 17 20 3d
       -0.034443185 -0.1353205 -0.02302002 0.039084885
0003f0 b2 97 b7 3c 6f e6 d8 bc b9 ff 71 bd de 69 1d bd
       0.022411201 -0.026477067 -0.059081767 -0.03843104
